…
I0127 02:01:37.531154  7268 net.cpp:322] The NetState phase (0) differed from the phase (1) specified by a rule in layer accuracy
I0127 02:01:37.532094  7268 net.cpp:58] Initializing net from parameters: 
name: "AlexNet"
state {
  phase: TRAIN
  level: 0
  stage: ""
}
layer {
  name: "data"
  type: "ImageData"
  top: "data"
  top: "label"
  include {
    phase: TRAIN
  }
  transform_param {
    mirror: true
    crop_size: 227
    mean_value: 104
    mean_value: 117
    mean_value: 123
  }
  image_data_param {
    source: "train_val.txt"
    batch_size: 256
    shuffle: true
    new_height: 256
    new_width: 256
  }
}
layer {
  name: "conv1"
  type: "Convolution"
  bottom: "data"
  top: "conv1"
  param {
    lr_mult: 1
    decay_mult: 1
  }
  param {
    lr_mult: 2
    decay_mult: 0
  }
  convolution_param {
    num_output: 96
    kernel_size: 11
    stride: 4
    weight_filler {
      type: "gaussian"
      std: 0.01
    }
    bias_filler {
      type: "constant"
      value: 0
    }
  }
}
layer {
  name: "relu1"
  type: "ReLU"
  bottom: "conv1"
  top: "conv1"
}
layer {
  name: "norm1"
  type: "LRN"
  bottom: "conv1"
  top: "norm1"
  lrn_param {
    local_size: 5
    alpha: 0.0001
    beta: 0.75
  }
}
layer {
  name: "pool1"
  type: "Pooling"
  bottom: "norm1"
  top: "pool1"
  pooling_param {
    pool: MAX
    kernel_size: 3
    stride: 2
  }
}
layer {
  name: "conv2"
  type: "Convolution"
  bottom: "pool1"
  top: "conv2"
  param {
    lr_mult: 1
    decay_mult: 1
  }
  param {
    lr_mult: 2
    decay_mult: 0
  }
  convolution_param {
    num_output: 256
    pad: 2
    kernel_size: 5
    group: 2
    weight_filler {
      type: "gaussian"
      std: 0.01
    }
    bias_filler {
      type: "constant"
      value: 0.1
    }
  }
}
layer {
  name: "relu2"
  type: "ReLU"
  bottom: "conv2"
  top: "conv2"
}
layer {
  name: "norm2"
  type: "LRN"
  bottom: "conv2"
  top: "norm2"
  lrn_param {
    local_size: 5
    alpha: 0.0001
    beta: 0.75
  }
}
layer {
  name: "pool2"
  type: "Pooling"
  bottom: "norm2"
  top: "pool2"
  pooling_param {
    pool: MAX
    kernel_size: 3
    stride: 2
  }
}
layer {
  name: "conv3"
  type: "Convolution"
  bottom: "pool2"
  top: "conv3"
  param {
    lr_mult: 1
    decay_mult: 1
  }
  param {
    lr_mult: 2
    decay_mult: 0
  }
  convolution_param {
    num_output: 384
    pad: 1
    kernel_size: 3
    weight_filler {
      type: "gaussian"
      std: 0.01
    }
    bias_filler {
      type: "constant"
      value: 0
    }
  }
}
layer {
  name: "relu3"
  type: "ReLU"
  bottom: "conv3"
  top: "conv3"
}
layer {
  name: "conv4"
  type: "Convolution"
  bottom: "conv3"
  top: "conv4"
  param {
    lr_mult: 1
    decay_mult: 1
  }
  param {
    lr_mult: 2
    decay_mult: 0
  }
  convolution_param {
    num_output: 384
    pad: 1
    kernel_size: 3
    group: 2
    weight_filler {
      type: "gaussian"
      std: 0.01
    }
    bias_filler {
      type: "constant"
      value: 0.1
    }
  }
}
layer {
  name: "relu4"
  type: "ReLU"
  bottom: "conv4"
  top: "conv4"
}
layer {
  name: "conv5"
  type: "Convolution"
  bottom: "conv4"
  top: "conv5"
  param {
    lr_mult: 1
    decay_mult: 1
  }
  param {
    lr_mult: 2
    decay_mult: 0
  }
  convolution_param {
    num_output: 256
    pad: 1
    kernel_size: 3
    group: 2
    weight_filler {
      type: "gaussian"
      std: 0.01
    }
    bias_filler {
      type: "constant"
      value: 0.1
    }
  }
}
layer {
  name: "relu5"
  type: "ReLU"
  bottom: "conv5"
  top: "conv5"
}
layer {
  name: "pool5"
  type: "Pooling"
  bottom: "conv5"
  top: "pool5"
  pooling_param {
    pool: MAX
    kernel_size: 3
    stride: 2
  }
}
layer {
  name: "fc6"
  type: "InnerProduct"
  bottom: "pool5"
  top: "fc6"
  param {
    lr_mult: 1
    decay_mult: 1
  }
  param {
    lr_mult: 2
    decay_mult: 0
  }
  inner_product_param {
    num_output: 4096
    weight_filler {
      type: "gaussian"
      std: 0.005
    }
    bias_filler {
      type: "constant"
      value: 0.1
    }
  }
}
layer {
  name: "relu6"
  type: "ReLU"
  bottom: "fc6"
  top: "fc6"
}
layer {
  name: "drop6"
  type: "Dropout"
  bottom: "fc6"
  top: "fc6"
  dropout_param {
    dropout_ratio: 0.5
  }
}
layer {
  name: "fc7"
  type: "InnerProduct"
  bottom: "fc6"
  top: "fc7"
  param {
    lr_mult: 1
    decay_mult: 1
  }
  param {
    lr_mult: 2
    decay_mult: 0
  }
  inner_product_param {
    num_output: 4096
    weight_filler {
      type: "gaussian"
      std: 0.005
    }
    bias_filler {
      type: "constant"
      value: 0.1
    }
  }
}
layer {
  name: "relu7"
  type: "ReLU"
  bottom: "fc7"
  top: "fc7"
}
layer {
  name: "drop7"
  type: "Dropout"
  bottom: "fc7"
  top: "fc7"
  dropout_param {
    dropout_ratio: 0.5
  }
}
layer {
  name: "fc8_2"
  type: "InnerProduct"
  bottom: "fc7"
  top: "fc8"
  param {
    lr_mult: 1
    decay_mult: 1
  }
  param {
    lr_mult: 2
    decay_mult: 0
  }
  inner_product_param {
    num_output: 2
    weight_filler {
      type: "gaussian"
      std: 0.01
    }
    bias_filler {
      type: "constant"
      value: 0
    }
  }
}
layer {
  name: "loss"
  type: "SoftmaxWithLoss"
  bottom: "fc8"
  bottom: "label"
  top: "loss"
}
I0127 02:01:37.532294  7268 layer_factory.hpp:77] Creating layer data
I0127 02:01:37.532341  7268 net.cpp:100] Creating Layer data
I0127 02:01:37.532354  7268 net.cpp:408] data -> data
I0127 02:01:37.532387  7268 net.cpp:408] data -> label
I0127 02:01:37.533089  7268 image_data_layer.cpp:38] Opening file train_val.txt
I0127 02:01:37.543254  7268 image_data_layer.cpp:53] Shuffling data
I0127 02:01:37.545699  7268 image_data_layer.cpp:58] A total of 20000 images.
I0127 02:01:37.567829  7268 image_data_layer.cpp:85] output data size: 256,3,227,227
I0127 02:01:38.003342  7268 net.cpp:150] Setting up data
I0127 02:01:38.003424  7268 net.cpp:157] Top shape: 256 3 227 227 (39574272)
I0127 02:01:38.003437  7268 net.cpp:157] Top shape: 256 (256)
I0127 02:01:38.003444  7268 net.cpp:165] Memory required for data: 158298112
I0127 02:01:38.003454  7268 layer_factory.hpp:77] Creating layer conv1
I0127 02:01:38.003494  7268 net.cpp:100] Creating Layer conv1
I0127 02:01:38.003505  7268 net.cpp:434] conv1 <- data
I0127 02:01:38.003528  7268 net.cpp:408] conv1 -> conv1
I0127 02:01:38.257635  7268 net.cpp:150] Setting up conv1
I0127 02:01:38.257673  7268 net.cpp:157] Top shape: 256 96 55 55 (74342400)
I0127 02:01:38.257681  7268 net.cpp:165] Memory required for data: 455667712
I0127 02:01:38.257709  7268 layer_factory.hpp:77] Creating layer relu1
I0127 02:01:38.257751  7268 net.cpp:100] Creating Layer relu1
I0127 02:01:38.257761  7268 net.cpp:434] relu1 <- conv1
I0127 02:01:38.257782  7268 net.cpp:395] relu1 -> conv1 (in-place)
I0127 02:01:38.258216  7268 net.cpp:150] Setting up relu1
I0127 02:01:38.258241  7268 net.cpp:157] Top shape: 256 96 55 55 (74342400)
I0127 02:01:38.258247  7268 net.cpp:165] Memory required for data: 753037312
I0127 02:01:38.258255  7268 layer_factory.hpp:77] Creating layer norm1
I0127 02:01:38.258271  7268 net.cpp:100] Creating Layer norm1
I0127 02:01:38.258289  7268 net.cpp:434] norm1 <- conv1
I0127 02:01:38.258301  7268 net.cpp:408] norm1 -> norm1
I0127 02:01:38.258549  7268 net.cpp:150] Setting up norm1
I0127 02:01:38.258561  7268 net.cpp:157] Top shape: 256 96 55 55 (74342400)
I0127 02:01:38.258568  7268 net.cpp:165] Memory required for data: 1050406912
I0127 02:01:38.258572  7268 layer_factory.hpp:77] Creating layer pool1
I0127 02:01:38.258630  7268 net.cpp:100] Creating Layer pool1
I0127 02:01:38.258638  7268 net.cpp:434] pool1 <- norm1
I0127 02:01:38.258651  7268 net.cpp:408] pool1 -> pool1
I0127 02:01:38.258719  7268 net.cpp:150] Setting up pool1
I0127 02:01:38.258730  7268 net.cpp:157] Top shape: 256 96 27 27 (17915904)
I0127 02:01:38.258734  7268 net.cpp:165] Memory required for data: 1122070528
I0127 02:01:38.258739  7268 layer_factory.hpp:77] Creating layer conv2
I0127 02:01:38.258759  7268 net.cpp:100] Creating Layer conv2
I0127 02:01:38.258766  7268 net.cpp:434] conv2 <- pool1
I0127 02:01:38.258775  7268 net.cpp:408] conv2 -> conv2
I0127 02:01:38.274157  7268 net.cpp:150] Setting up conv2
I0127 02:01:38.274188  7268 net.cpp:157] Top shape: 256 256 27 27 (47775744)
I0127 02:01:38.274196  7268 net.cpp:165] Memory required for data: 1313173504
I0127 02:01:38.274215  7268 layer_factory.hpp:77] Creating layer relu2
I0127 02:01:38.274230  7268 net.cpp:100] Creating Layer relu2
I0127 02:01:38.274237  7268 net.cpp:434] relu2 <- conv2
I0127 02:01:38.274260  7268 net.cpp:395] relu2 -> conv2 (in-place)
I0127 02:01:38.274510  7268 net.cpp:150] Setting up relu2
I0127 02:01:38.274523  7268 net.cpp:157] Top shape: 256 256 27 27 (47775744)
I0127 02:01:38.274528  7268 net.cpp:165] Memory required for data: 1504276480
I0127 02:01:38.274533  7268 layer_factory.hpp:77] Creating layer norm2
I0127 02:01:38.274547  7268 net.cpp:100] Creating Layer norm2
I0127 02:01:38.274555  7268 net.cpp:434] norm2 <- conv2
I0127 02:01:38.274562  7268 net.cpp:408] norm2 -> norm2
I0127 02:01:38.275043  7268 net.cpp:150] Setting up norm2
I0127 02:01:38.275059  7268 net.cpp:157] Top shape: 256 256 27 27 (47775744)
I0127 02:01:38.275064  7268 net.cpp:165] Memory required for data: 1695379456
I0127 02:01:38.275073  7268 layer_factory.hpp:77] Creating layer pool2
I0127 02:01:38.275097  7268 net.cpp:100] Creating Layer pool2
I0127 02:01:38.275102  7268 net.cpp:434] pool2 <- norm2
I0127 02:01:38.275110  7268 net.cpp:408] pool2 -> pool2
I0127 02:01:38.275161  7268 net.cpp:150] Setting up pool2
I0127 02:01:38.275171  7268 net.cpp:157] Top shape: 256 256 13 13 (11075584)
I0127 02:01:38.275176  7268 net.cpp:165] Memory required for data: 1739681792
I0127 02:01:38.275180  7268 layer_factory.hpp:77] Creating layer conv3
I0127 02:01:38.275198  7268 net.cpp:100] Creating Layer conv3
I0127 02:01:38.275205  7268 net.cpp:434] conv3 <- pool2
I0127 02:01:38.275216  7268 net.cpp:408] conv3 -> conv3
I0127 02:01:38.312247  7268 net.cpp:150] Setting up conv3
I0127 02:01:38.312291  7268 net.cpp:157] Top shape: 256 384 13 13 (16613376)
I0127 02:01:38.312297  7268 net.cpp:165] Memory required for data: 1806135296
I0127 02:01:38.312315  7268 layer_factory.hpp:77] Creating layer relu3
I0127 02:01:38.312331  7268 net.cpp:100] Creating Layer relu3
I0127 02:01:38.312351  7268 net.cpp:434] relu3 <- conv3
I0127 02:01:38.312363  7268 net.cpp:395] relu3 -> conv3 (in-place)
I0127 02:01:38.312614  7268 net.cpp:150] Setting up relu3
I0127 02:01:38.312638  7268 net.cpp:157] Top shape: 256 384 13 13 (16613376)
I0127 02:01:38.312644  7268 net.cpp:165] Memory required for data: 1872588800
I0127 02:01:38.312649  7268 layer_factory.hpp:77] Creating layer conv4
I0127 02:01:38.312682  7268 net.cpp:100] Creating Layer conv4
I0127 02:01:38.312690  7268 net.cpp:434] conv4 <- conv3
I0127 02:01:38.312700  7268 net.cpp:408] conv4 -> conv4
I0127 02:01:38.341923  7268 net.cpp:150] Setting up conv4
I0127 02:01:38.341980  7268 net.cpp:157] Top shape: 256 384 13 13 (16613376)
I0127 02:01:38.341987  7268 net.cpp:165] Memory required for data: 1939042304
I0127 02:01:38.342000  7268 layer_factory.hpp:77] Creating layer relu4
I0127 02:01:38.342020  7268 net.cpp:100] Creating Layer relu4
I0127 02:01:38.342030  7268 net.cpp:434] relu4 <- conv4
I0127 02:01:38.342064  7268 net.cpp:395] relu4 -> conv4 (in-place)
I0127 02:01:38.342329  7268 net.cpp:150] Setting up relu4
I0127 02:01:38.342340  7268 net.cpp:157] Top shape: 256 384 13 13 (16613376)
I0127 02:01:38.342345  7268 net.cpp:165] Memory required for data: 2005495808
I0127 02:01:38.342350  7268 layer_factory.hpp:77] Creating layer conv5
I0127 02:01:38.342404  7268 net.cpp:100] Creating Layer conv5
I0127 02:01:38.342413  7268 net.cpp:434] conv5 <- conv4
I0127 02:01:38.342424  7268 net.cpp:408] conv5 -> conv5
I0127 02:01:38.363507  7268 net.cpp:150] Setting up conv5
I0127 02:01:38.363553  7268 net.cpp:157] Top shape: 256 256 13 13 (11075584)
I0127 02:01:38.363559  7268 net.cpp:165] Memory required for data: 2049798144
I0127 02:01:38.363577  7268 layer_factory.hpp:77] Creating layer relu5
I0127 02:01:38.363610  7268 net.cpp:100] Creating Layer relu5
I0127 02:01:38.363617  7268 net.cpp:434] relu5 <- conv5
I0127 02:01:38.363629  7268 net.cpp:395] relu5 -> conv5 (in-place)
I0127 02:01:38.363909  7268 net.cpp:150] Setting up relu5
I0127 02:01:38.363921  7268 net.cpp:157] Top shape: 256 256 13 13 (11075584)
I0127 02:01:38.363929  7268 net.cpp:165] Memory required for data: 2094100480
I0127 02:01:38.363945  7268 layer_factory.hpp:77] Creating layer pool5
I0127 02:01:38.363958  7268 net.cpp:100] Creating Layer pool5
I0127 02:01:38.363965  7268 net.cpp:434] pool5 <- conv5
I0127 02:01:38.363976  7268 net.cpp:408] pool5 -> pool5
I0127 02:01:38.364048  7268 net.cpp:150] Setting up pool5
I0127 02:01:38.364064  7268 net.cpp:157] Top shape: 256 256 6 6 (2359296)
I0127 02:01:38.364069  7268 net.cpp:165] Memory required for data: 2103537664
I0127 02:01:38.364074  7268 layer_factory.hpp:77] Creating layer fc6
I0127 02:01:38.364095  7268 net.cpp:100] Creating Layer fc6
I0127 02:01:38.364104  7268 net.cpp:434] fc6 <- pool5
I0127 02:01:38.364111  7268 net.cpp:408] fc6 -> fc6
I0127 02:01:39.846913  7268 net.cpp:150] Setting up fc6
I0127 02:01:39.846937  7268 net.cpp:157] Top shape: 256 4096 (1048576)
I0127 02:01:39.846941  7268 net.cpp:165] Memory required for data: 2107731968
I0127 02:01:39.846952  7268 layer_factory.hpp:77] Creating layer relu6
I0127 02:01:39.846969  7268 net.cpp:100] Creating Layer relu6
I0127 02:01:39.846974  7268 net.cpp:434] relu6 <- fc6
I0127 02:01:39.846982  7268 net.cpp:395] relu6 -> fc6 (in-place)
I0127 02:01:39.847620  7268 net.cpp:150] Setting up relu6
I0127 02:01:39.847630  7268 net.cpp:157] Top shape: 256 4096 (1048576)
I0127 02:01:39.847632  7268 net.cpp:165] Memory required for data: 2111926272
I0127 02:01:39.847635  7268 layer_factory.hpp:77] Creating layer drop6
I0127 02:01:39.847645  7268 net.cpp:100] Creating Layer drop6
I0127 02:01:39.847651  7268 net.cpp:434] drop6 <- fc6
I0127 02:01:39.847667  7268 net.cpp:395] drop6 -> fc6 (in-place)
I0127 02:01:39.847707  7268 net.cpp:150] Setting up drop6
I0127 02:01:39.847713  7268 net.cpp:157] Top shape: 256 4096 (1048576)
I0127 02:01:39.847717  7268 net.cpp:165] Memory required for data: 2116120576
I0127 02:01:39.847719  7268 layer_factory.hpp:77] Creating layer fc7
I0127 02:01:39.847730  7268 net.cpp:100] Creating Layer fc7
I0127 02:01:39.847734  7268 net.cpp:434] fc7 <- fc6
I0127 02:01:39.847741  7268 net.cpp:408] fc7 -> fc7
I0127 02:01:40.332371  7268 net.cpp:150] Setting up fc7
I0127 02:01:40.332404  7268 net.cpp:157] Top shape: 256 4096 (1048576)
I0127 02:01:40.332407  7268 net.cpp:165] Memory required for data: 2120314880
I0127 02:01:40.332417  7268 layer_factory.hpp:77] Creating layer relu7
I0127 02:01:40.332427  7268 net.cpp:100] Creating Layer relu7
I0127 02:01:40.332432  7268 net.cpp:434] relu7 <- fc7
I0127 02:01:40.332437  7268 net.cpp:395] relu7 -> fc7 (in-place)
I0127 02:01:40.332927  7268 net.cpp:150] Setting up relu7
I0127 02:01:40.332938  7268 net.cpp:157] Top shape: 256 4096 (1048576)
I0127 02:01:40.332942  7268 net.cpp:165] Memory required for data: 2124509184
I0127 02:01:40.332944  7268 layer_factory.hpp:77] Creating layer drop7
I0127 02:01:40.332954  7268 net.cpp:100] Creating Layer drop7
I0127 02:01:40.332960  7268 net.cpp:434] drop7 <- fc7
I0127 02:01:40.332975  7268 net.cpp:395] drop7 -> fc7 (in-place)
I0127 02:01:40.332999  7268 net.cpp:150] Setting up drop7
I0127 02:01:40.333004  7268 net.cpp:157] Top shape: 256 4096 (1048576)
I0127 02:01:40.333012  7268 net.cpp:165] Memory required for data: 2128703488
I0127 02:01:40.333015  7268 layer_factory.hpp:77] Creating layer fc8_2
I0127 02:01:40.333043  7268 net.cpp:100] Creating Layer fc8_2
I0127 02:01:40.333047  7268 net.cpp:434] fc8_2 <- fc7
I0127 02:01:40.333053  7268 net.cpp:408] fc8_2 -> fc8
I0127 02:01:40.333938  7268 net.cpp:150] Setting up fc8_2
I0127 02:01:40.333948  7268 net.cpp:157] Top shape: 256 2 (512)
I0127 02:01:40.333961  7268 net.cpp:165] Memory required for data: 2128705536
I0127 02:01:40.333967  7268 layer_factory.hpp:77] Creating layer loss
I0127 02:01:40.333977  7268 net.cpp:100] Creating Layer loss
I0127 02:01:40.333981  7268 net.cpp:434] loss <- fc8
I0127 02:01:40.333984  7268 net.cpp:434] loss <- label
I0127 02:01:40.333991  7268 net.cpp:408] loss -> loss
I0127 02:01:40.334003  7268 layer_factory.hpp:77] Creating layer loss
…
I0127 02:01:40.335510  7268 net.cpp:322] The NetState phase (1) differed from the phase (0) specified by a rule in layer data
I0127 02:01:40.336050  7268 net.cpp:58] Initializing net from parameters: 
name: "AlexNet"
state {
  phase: TEST
}
layer {
  name: "data"
  type: "ImageData"
  top: "data"
  top: "label"
  include {
    phase: TEST
  }
  transform_param {
    mirror: true
    crop_size: 227
    mean_value: 104
    mean_value: 117
    mean_value: 123
  }
  image_data_param {
    source: "test.txt"
    batch_size: 50
    shuffle: true
    new_height: 256
    new_width: 256
  }
}
layer {
  name: "conv1"
  type: "Convolution"
  bottom: "data"
  top: "conv1"
  param {
    lr_mult: 1
    decay_mult: 1
  }
  param {
    lr_mult: 2
    decay_mult: 0
  }
  convolution_param {
    num_output: 96
    kernel_size: 11
    stride: 4
    weight_filler {
      type: "gaussian"
      std: 0.01
    }
    bias_filler {
      type: "constant"
      value: 0
    }
  }
}
layer {
  name: "relu1"
  type: "ReLU"
  bottom: "conv1"
  top: "conv1"
}
layer {
  name: "norm1"
  type: "LRN"
  bottom: "conv1"
  top: "norm1"
  lrn_param {
    local_size: 5
    alpha: 0.0001
    beta: 0.75
  }
}
layer {
  name: "pool1"
  type: "Pooling"
  bottom: "norm1"
  top: "pool1"
  pooling_param {
    pool: MAX
    kernel_size: 3
    stride: 2
  }
}
layer {
  name: "conv2"
  type: "Convolution"
  bottom: "pool1"
  top: "conv2"
  param {
    lr_mult: 1
    decay_mult: 1
  }
  param {
    lr_mult: 2
    decay_mult: 0
  }
  convolution_param {
    num_output: 256
    pad: 2
    kernel_size: 5
    group: 2
    weight_filler {
      type: "gaussian"
      std: 0.01
    }
    bias_filler {
      type: "constant"
      value: 0.1
    }
  }
}
layer {
  name: "relu2"
  type: "ReLU"
  bottom: "conv2"
  top: "conv2"
}
layer {
  name: "norm2"
  type: "LRN"
  bottom: "conv2"
  top: "norm2"
  lrn_param {
    local_size: 5
    alpha: 0.0001
    beta: 0.75
  }
}
layer {
  name: "pool2"
  type: "Pooling"
  bottom: "norm2"
  top: "pool2"
  pooling_param {
    pool: MAX
    kernel_size: 3
    stride: 2
  }
}
layer {
  name: "conv3"
  type: "Convolution"
  bottom: "pool2"
  top: "conv3"
  param {
    lr_mult: 1
    decay_mult: 1
  }
  param {
    lr_mult: 2
    decay_mult: 0
  }
  convolution_param {
    num_output: 384
    pad: 1
    kernel_size: 3
    weight_filler {
      type: "gaussian"
      std: 0.01
    }
    bias_filler {
      type: "constant"
      value: 0
    }
  }
}
layer {
  name: "relu3"
  type: "ReLU"
  bottom: "conv3"
  top: "conv3"
}
layer {
  name: "conv4"
  type: "Convolution"
  bottom: "conv3"
  top: "conv4"
  param {
    lr_mult: 1
    decay_mult: 1
  }
  param {
    lr_mult: 2
    decay_mult: 0
  }
  convolution_param {
    num_output: 384
    pad: 1
    kernel_size: 3
    group: 2
    weight_filler {
      type: "gaussian"
      std: 0.01
    }
    bias_filler {
      type: "constant"
      value: 0.1
    }
  }
}
layer {
  name: "relu4"
  type: "ReLU"
  bottom: "conv4"
  top: "conv4"
}
layer {
  name: "conv5"
  type: "Convolution"
  bottom: "conv4"
  top: "conv5"
  param {
    lr_mult: 1
    decay_mult: 1
  }
  param {
    lr_mult: 2
    decay_mult: 0
  }
  convolution_param {
    num_output: 256
    pad: 1
    kernel_size: 3
    group: 2
    weight_filler {
      type: "gaussian"
      std: 0.01
    }
    bias_filler {
      type: "constant"
      value: 0.1
    }
  }
}
layer {
  name: "relu5"
  type: "ReLU"
  bottom: "conv5"
  top: "conv5"
}
layer {
  name: "pool5"
  type: "Pooling"
  bottom: "conv5"
  top: "pool5"
  pooling_param {
    pool: MAX
    kernel_size: 3
    stride: 2
  }
}
layer {
  name: "fc6"
  type: "InnerProduct"
  bottom: "pool5"
  top: "fc6"
  param {
    lr_mult: 1
    decay_mult: 1
  }
  param {
    lr_mult: 2
    decay_mult: 0
  }
  inner_product_param {
    num_output: 4096
    weight_filler {
      type: "gaussian"
      std: 0.005
    }
    bias_filler {
      type: "constant"
      value: 0.1
    }
  }
}
layer {
  name: "relu6"
  type: "ReLU"
  bottom: "fc6"
  top: "fc6"
}
layer {
  name: "drop6"
  type: "Dropout"
  bottom: "fc6"
  top: "fc6"
  dropout_param {
    dropout_ratio: 0.5
  }
}
layer {
  name: "fc7"
  type: "InnerProduct"
  bottom: "fc6"
  top: "fc7"
  param {
    lr_mult: 1
    decay_mult: 1
  }
  param {
    lr_mult: 2
    decay_mult: 0
  }
  inner_product_param {
    num_output: 4096
    weight_filler {
      type: "gaussian"
      std: 0.005
    }
    bias_filler {
      type: "constant"
      value: 0.1
    }
  }
}
layer {
  name: "relu7"
  type: "ReLU"
  bottom: "fc7"
  top: "fc7"
}
layer {
  name: "drop7"
  type: "Dropout"
  bottom: "fc7"
  top: "fc7"
  dropout_param {
    dropout_ratio: 0.5
  }
}
layer {
  name: "fc8_2"
  type: "InnerProduct"
  bottom: "fc7"
  top: "fc8"
  param {
    lr_mult: 1
    decay_mult: 1
  }
  param {
    lr_mult: 2
    decay_mult: 0
  }
  inner_product_param {
    num_output: 2
    weight_filler {
      type: "gaussian"
      std: 0.01
    }
    bias_filler {
      type: "constant"
      value: 0
    }
  }
}
layer {
  name: "accuracy"
  type: "Accuracy"
  bottom: "fc8"
  bottom: "label"
  top: "accuracy"
  include {
    phase: TEST
  }
}
layer {
  name: "loss"
  type: "SoftmaxWithLoss"
  bottom: "fc8"
  bottom: "label"
  top: "loss"
}
I0127 02:01:40.336196  7268 layer_factory.hpp:77] Creating layer data
I0127 02:01:40.336208  7268 net.cpp:100] Creating Layer data
I0127 02:01:40.336213  7268 net.cpp:408] data -> data
I0127 02:01:40.336221  7268 net.cpp:408] data -> label
I0127 02:01:40.336232  7268 image_data_layer.cpp:38] Opening file test.txt
I0127 02:01:40.337637  7268 image_data_layer.cpp:53] Shuffling data
I0127 02:01:40.338011  7268 image_data_layer.cpp:58] A total of 5000 images.
I0127 02:01:40.341306  7268 image_data_layer.cpp:85] output data size: 50,3,227,227
I0127 02:01:40.397311  7268 net.cpp:150] Setting up data
I0127 02:01:40.397343  7268 net.cpp:157] Top shape: 50 3 227 227 (7729350)
I0127 02:01:40.397348  7268 net.cpp:157] Top shape: 50 (50)
I0127 02:01:40.397351  7268 net.cpp:165] Memory required for data: 30917600
I0127 02:01:40.397356  7268 layer_factory.hpp:77] Creating layer label_data_1_split
I0127 02:01:40.397387  7268 net.cpp:100] Creating Layer label_data_1_split
I0127 02:01:40.397390  7268 net.cpp:434] label_data_1_split <- label
I0127 02:01:40.397397  7268 net.cpp:408] label_data_1_split -> label_data_1_split_0
I0127 02:01:40.397406  7268 net.cpp:408] label_data_1_split -> label_data_1_split_1
I0127 02:01:40.397470  7268 net.cpp:150] Setting up label_data_1_split
I0127 02:01:40.397477  7268 net.cpp:157] Top shape: 50 (50)
I0127 02:01:40.397481  7268 net.cpp:157] Top shape: 50 (50)
I0127 02:01:40.397485  7268 net.cpp:165] Memory required for data: 30918000
I0127 02:01:40.397486  7268 layer_factory.hpp:77] Creating layer conv1
I0127 02:01:40.397500  7268 net.cpp:100] Creating Layer conv1
I0127 02:01:40.397503  7268 net.cpp:434] conv1 <- data
I0127 02:01:40.397508  7268 net.cpp:408] conv1 -> conv1
I0127 02:01:40.399893  7268 net.cpp:150] Setting up conv1
I0127 02:01:40.399905  7268 net.cpp:157] Top shape: 50 96 55 55 (14520000)
I0127 02:01:40.399909  7268 net.cpp:165] Memory required for data: 88998000
I0127 02:01:40.399919  7268 layer_factory.hpp:77] Creating layer relu1
I0127 02:01:40.399927  7268 net.cpp:100] Creating Layer relu1
I0127 02:01:40.399930  7268 net.cpp:434] relu1 <- conv1
I0127 02:01:40.399935  7268 net.cpp:395] relu1 -> conv1 (in-place)
I0127 02:01:40.400108  7268 net.cpp:150] Setting up relu1
I0127 02:01:40.400117  7268 net.cpp:157] Top shape: 50 96 55 55 (14520000)
I0127 02:01:40.400120  7268 net.cpp:165] Memory required for data: 147078000
I0127 02:01:40.400123  7268 layer_factory.hpp:77] Creating layer norm1
I0127 02:01:40.400131  7268 net.cpp:100] Creating Layer norm1
I0127 02:01:40.400135  7268 net.cpp:434] norm1 <- conv1
I0127 02:01:40.400140  7268 net.cpp:408] norm1 -> norm1
I0127 02:01:40.400508  7268 net.cpp:150] Setting up norm1
I0127 02:01:40.400519  7268 net.cpp:157] Top shape: 50 96 55 55 (14520000)
I0127 02:01:40.400522  7268 net.cpp:165] Memory required for data: 205158000
I0127 02:01:40.400526  7268 layer_factory.hpp:77] Creating layer pool1
I0127 02:01:40.400533  7268 net.cpp:100] Creating Layer pool1
I0127 02:01:40.400537  7268 net.cpp:434] pool1 <- norm1
I0127 02:01:40.400542  7268 net.cpp:408] pool1 -> pool1
I0127 02:01:40.400601  7268 net.cpp:150] Setting up pool1
I0127 02:01:40.400607  7268 net.cpp:157] Top shape: 50 96 27 27 (3499200)
I0127 02:01:40.400609  7268 net.cpp:165] Memory required for data: 219154800
I0127 02:01:40.400612  7268 layer_factory.hpp:77] Creating layer conv2
I0127 02:01:40.400621  7268 net.cpp:100] Creating Layer conv2
I0127 02:01:40.400624  7268 net.cpp:434] conv2 <- pool1
I0127 02:01:40.400630  7268 net.cpp:408] conv2 -> conv2
I0127 02:01:40.415385  7268 net.cpp:150] Setting up conv2
I0127 02:01:40.415396  7268 net.cpp:157] Top shape: 50 256 27 27 (9331200)
I0127 02:01:40.415400  7268 net.cpp:165] Memory required for data: 256479600
I0127 02:01:40.415410  7268 layer_factory.hpp:77] Creating layer relu2
I0127 02:01:40.415416  7268 net.cpp:100] Creating Layer relu2
I0127 02:01:40.415419  7268 net.cpp:434] relu2 <- conv2
I0127 02:01:40.415444  7268 net.cpp:395] relu2 -> conv2 (in-place)
I0127 02:01:40.415627  7268 net.cpp:150] Setting up relu2
I0127 02:01:40.415637  7268 net.cpp:157] Top shape: 50 256 27 27 (9331200)
I0127 02:01:40.415639  7268 net.cpp:165] Memory required for data: 293804400
I0127 02:01:40.415642  7268 layer_factory.hpp:77] Creating layer norm2
I0127 02:01:40.415650  7268 net.cpp:100] Creating Layer norm2
I0127 02:01:40.415653  7268 net.cpp:434] norm2 <- conv2
I0127 02:01:40.415658  7268 net.cpp:408] norm2 -> norm2
I0127 02:01:40.416020  7268 net.cpp:150] Setting up norm2
I0127 02:01:40.416031  7268 net.cpp:157] Top shape: 50 256 27 27 (9331200)
I0127 02:01:40.416034  7268 net.cpp:165] Memory required for data: 331129200
I0127 02:01:40.416038  7268 layer_factory.hpp:77] Creating layer pool2
I0127 02:01:40.416044  7268 net.cpp:100] Creating Layer pool2
I0127 02:01:40.416048  7268 net.cpp:434] pool2 <- norm2
I0127 02:01:40.416052  7268 net.cpp:408] pool2 -> pool2
I0127 02:01:40.416098  7268 net.cpp:150] Setting up pool2
I0127 02:01:40.416105  7268 net.cpp:157] Top shape: 50 256 13 13 (2163200)
I0127 02:01:40.416107  7268 net.cpp:165] Memory required for data: 339782000
I0127 02:01:40.416110  7268 layer_factory.hpp:77] Creating layer conv3
I0127 02:01:40.416118  7268 net.cpp:100] Creating Layer conv3
I0127 02:01:40.416121  7268 net.cpp:434] conv3 <- pool2
I0127 02:01:40.416127  7268 net.cpp:408] conv3 -> conv3
I0127 02:01:40.461064  7268 net.cpp:150] Setting up conv3
I0127 02:01:40.461093  7268 net.cpp:157] Top shape: 50 384 13 13 (3244800)
I0127 02:01:40.461097  7268 net.cpp:165] Memory required for data: 352761200
I0127 02:01:40.461107  7268 layer_factory.hpp:77] Creating layer relu3
I0127 02:01:40.461114  7268 net.cpp:100] Creating Layer relu3
I0127 02:01:40.461118  7268 net.cpp:434] relu3 <- conv3
I0127 02:01:40.461123  7268 net.cpp:395] relu3 -> conv3 (in-place)
I0127 02:01:40.461457  7268 net.cpp:150] Setting up relu3
I0127 02:01:40.461467  7268 net.cpp:157] Top shape: 50 384 13 13 (3244800)
I0127 02:01:40.461470  7268 net.cpp:165] Memory required for data: 365740400
I0127 02:01:40.461473  7268 layer_factory.hpp:77] Creating layer conv4
I0127 02:01:40.461489  7268 net.cpp:100] Creating Layer conv4
I0127 02:01:40.461495  7268 net.cpp:434] conv4 <- conv3
I0127 02:01:40.461513  7268 net.cpp:408] conv4 -> conv4
I0127 02:01:40.503464  7268 net.cpp:150] Setting up conv4
I0127 02:01:40.503476  7268 net.cpp:157] Top shape: 50 384 13 13 (3244800)
I0127 02:01:40.503491  7268 net.cpp:165] Memory required for data: 378719600
I0127 02:01:40.503497  7268 layer_factory.hpp:77] Creating layer relu4
I0127 02:01:40.503504  7268 net.cpp:100] Creating Layer relu4
I0127 02:01:40.503509  7268 net.cpp:434] relu4 <- conv4
I0127 02:01:40.503515  7268 net.cpp:395] relu4 -> conv4 (in-place)
I0127 02:01:40.503707  7268 net.cpp:150] Setting up relu4
I0127 02:01:40.503716  7268 net.cpp:157] Top shape: 50 384 13 13 (3244800)
I0127 02:01:40.503720  7268 net.cpp:165] Memory required for data: 391698800
I0127 02:01:40.503722  7268 layer_factory.hpp:77] Creating layer conv5
I0127 02:01:40.503736  7268 net.cpp:100] Creating Layer conv5
I0127 02:01:40.503741  7268 net.cpp:434] conv5 <- conv4
I0127 02:01:40.503747  7268 net.cpp:408] conv5 -> conv5
I0127 02:01:40.519686  7268 net.cpp:150] Setting up conv5
I0127 02:01:40.519711  7268 net.cpp:157] Top shape: 50 256 13 13 (2163200)
I0127 02:01:40.519714  7268 net.cpp:165] Memory required for data: 400351600
I0127 02:01:40.519724  7268 layer_factory.hpp:77] Creating layer relu5
I0127 02:01:40.519731  7268 net.cpp:100] Creating Layer relu5
I0127 02:01:40.519736  7268 net.cpp:434] relu5 <- conv5
I0127 02:01:40.519739  7268 net.cpp:395] relu5 -> conv5 (in-place)
I0127 02:01:40.519922  7268 net.cpp:150] Setting up relu5
I0127 02:01:40.519930  7268 net.cpp:157] Top shape: 50 256 13 13 (2163200)
I0127 02:01:40.519933  7268 net.cpp:165] Memory required for data: 409004400
I0127 02:01:40.519937  7268 layer_factory.hpp:77] Creating layer pool5
I0127 02:01:40.519948  7268 net.cpp:100] Creating Layer pool5
I0127 02:01:40.519965  7268 net.cpp:434] pool5 <- conv5
I0127 02:01:40.519971  7268 net.cpp:408] pool5 -> pool5
I0127 02:01:40.520022  7268 net.cpp:150] Setting up pool5
I0127 02:01:40.520030  7268 net.cpp:157] Top shape: 50 256 6 6 (460800)
I0127 02:01:40.520031  7268 net.cpp:165] Memory required for data: 410847600
I0127 02:01:40.520035  7268 layer_factory.hpp:77] Creating layer fc6
I0127 02:01:40.520045  7268 net.cpp:100] Creating Layer fc6
I0127 02:01:40.520050  7268 net.cpp:434] fc6 <- pool5
I0127 02:01:40.520056  7268 net.cpp:408] fc6 -> fc6
I0127 02:01:41.684315  7268 net.cpp:150] Setting up fc6
I0127 02:01:41.684348  7268 net.cpp:157] Top shape: 50 4096 (204800)
I0127 02:01:41.684352  7268 net.cpp:165] Memory required for data: 411666800
I0127 02:01:41.684360  7268 layer_factory.hpp:77] Creating layer relu6
I0127 02:01:41.684372  7268 net.cpp:100] Creating Layer relu6
I0127 02:01:41.684377  7268 net.cpp:434] relu6 <- fc6
I0127 02:01:41.684383  7268 net.cpp:395] relu6 -> fc6 (in-place)
I0127 02:01:41.684869  7268 net.cpp:150] Setting up relu6
I0127 02:01:41.684880  7268 net.cpp:157] Top shape: 50 4096 (204800)
I0127 02:01:41.684895  7268 net.cpp:165] Memory required for data: 412486000
I0127 02:01:41.684897  7268 layer_factory.hpp:77] Creating layer drop6
I0127 02:01:41.684916  7268 net.cpp:100] Creating Layer drop6
I0127 02:01:41.684919  7268 net.cpp:434] drop6 <- fc6
I0127 02:01:41.684924  7268 net.cpp:395] drop6 -> fc6 (in-place)
I0127 02:01:41.684962  7268 net.cpp:150] Setting up drop6
I0127 02:01:41.684979  7268 net.cpp:157] Top shape: 50 4096 (204800)
I0127 02:01:41.684983  7268 net.cpp:165] Memory required for data: 413305200
I0127 02:01:41.684985  7268 layer_factory.hpp:77] Creating layer fc7
I0127 02:01:41.684998  7268 net.cpp:100] Creating Layer fc7
I0127 02:01:41.685001  7268 net.cpp:434] fc7 <- fc6
I0127 02:01:41.685010  7268 net.cpp:408] fc7 -> fc7
I0127 02:01:42.199380  7268 net.cpp:150] Setting up fc7
I0127 02:01:42.199419  7268 net.cpp:157] Top shape: 50 4096 (204800)
I0127 02:01:42.199422  7268 net.cpp:165] Memory required for data: 414124400
I0127 02:01:42.199436  7268 layer_factory.hpp:77] Creating layer relu7
I0127 02:01:42.199456  7268 net.cpp:100] Creating Layer relu7
I0127 02:01:42.199462  7268 net.cpp:434] relu7 <- fc7
I0127 02:01:42.199470  7268 net.cpp:395] relu7 -> fc7 (in-place)
I0127 02:01:42.199856  7268 net.cpp:150] Setting up relu7
I0127 02:01:42.199874  7268 net.cpp:157] Top shape: 50 4096 (204800)
I0127 02:01:42.199877  7268 net.cpp:165] Memory required for data: 414943600
I0127 02:01:42.199880  7268 layer_factory.hpp:77] Creating layer drop7
I0127 02:01:42.199890  7268 net.cpp:100] Creating Layer drop7
I0127 02:01:42.199895  7268 net.cpp:434] drop7 <- fc7
I0127 02:01:42.199910  7268 net.cpp:395] drop7 -> fc7 (in-place)
I0127 02:01:42.199947  7268 net.cpp:150] Setting up drop7
I0127 02:01:42.199954  7268 net.cpp:157] Top shape: 50 4096 (204800)
I0127 02:01:42.199956  7268 net.cpp:165] Memory required for data: 415762800
I0127 02:01:42.199970  7268 layer_factory.hpp:77] Creating layer fc8_2
I0127 02:01:42.199981  7268 net.cpp:100] Creating Layer fc8_2
I0127 02:01:42.199985  7268 net.cpp:434] fc8_2 <- fc7
I0127 02:01:42.200001  7268 net.cpp:408] fc8_2 -> fc8
I0127 02:01:42.200417  7268 net.cpp:150] Setting up fc8_2
I0127 02:01:42.200425  7268 net.cpp:157] Top shape: 50 2 (100)
I0127 02:01:42.200438  7268 net.cpp:165] Memory required for data: 415763200
I0127 02:01:42.200443  7268 layer_factory.hpp:77] Creating layer fc8_fc8_2_0_split
I0127 02:01:42.200451  7268 net.cpp:100] Creating Layer fc8_fc8_2_0_split
I0127 02:01:42.200453  7268 net.cpp:434] fc8_fc8_2_0_split <- fc8
I0127 02:01:42.200459  7268 net.cpp:408] fc8_fc8_2_0_split -> fc8_fc8_2_0_split_0
I0127 02:01:42.200464  7268 net.cpp:408] fc8_fc8_2_0_split -> fc8_fc8_2_0_split_1
I0127 02:01:42.200511  7268 net.cpp:150] Setting up fc8_fc8_2_0_split
I0127 02:01:42.200517  7268 net.cpp:157] Top shape: 50 2 (100)
I0127 02:01:42.200521  7268 net.cpp:157] Top shape: 50 2 (100)
I0127 02:01:42.200523  7268 net.cpp:165] Memory required for data: 415764000
I0127 02:01:42.200546  7268 layer_factory.hpp:77] Creating layer accuracy
I0127 02:01:42.200556  7268 net.cpp:100] Creating Layer accuracy
I0127 02:01:42.200561  7268 net.cpp:434] accuracy <- fc8_fc8_2_0_split_0
I0127 02:01:42.200577  7268 net.cpp:434] accuracy <- label_data_1_split_0
I0127 02:01:42.200582  7268 net.cpp:408] accuracy -> accuracy
…
